gesture auth app models/gesture_model.tflite (tflite, 203320 bytes, 6 tensors)

arith.constant f4 [8, 128]
0.0033489615 0.0829785 -0.08351739 -0.10697204 0.20235173 -0.09740536 -0.12955457 0.20022894
-0.14336772 0.20311993 0.14517604 0.17387252 0.059119 0.09523915 -0.08349562 -0.1816039
0.118331805 0.04629195 0.016965719 -0.17813598 -0.112654135 -0.025215434 -0.11668315 0.16875361
-0.047627296 -0.0019404143 0.028511107 -0.17520651 0.13886492 -0.027037714 0.16137545 0.12127831
-0.024171308 -0.13049385 0.16277069 0.041380774 -0.13222027 0.16997284 -0.06280276 -0.13842833
-0.044781834 -0.100558415 -0.21447028 0.11401378 0.03365047 0.043245222 -0.08075274 0.10783074
-0.12681001 -0.09489065 0.19497643 -0.035994835 0.20555413 -0.08644771 0.10898648 -0.097999506
-0.10871184 0.18793352 0.17006521 -0.16889735 0.049231324 -0.017697908 0.024771232 -0.0954302
0.04529479 -0.16678776 0.12066721 0.0125292 0.011906177 -0.12881686 -0.09420492 0.062212788
-0.17536718 -0.05762305 -0.099421985 0.17743671 -0.18474217 0.009924772 -0.20553996 -0.035148308
-0.065553136 0.07499548 0.14190836 -0.0013655722 0.022266671 -0.15614319 0.18318416 -0.18285441
-0.11610303 -0.11755311 -0.08705557 -0.09015029 -0.02404538 -0.06273365 -0.14397548 0.14886323
-0.17166775 0.07936028 -0.002516148 -0.18807636 0.18618275 -0.08408146 -0.20902628 0.18238828
-0.0778102 0.039139643 0.13441993 0.16227569 -0.114070214 0.10931794 0.07593189 -0.08066416
-0.14659557 -0.11480568 -0.16084194 0.19152291 0.13143514 -0.19557439 0.20734903 -0.20090319
-0.21402565 -0.14750607 -0.1929595 -0.067319386 -0.06788908 -0.013617518 -0.060288057 -0.2017523
0.15182237 0.18035193 -0.21728528 0.09951528 -0.018636873 0.20119654 -0.005112223 0.19221117
0.17635484 -0.00031205447 0.077349864 -0.15957761 -0.041419044 -0.036511958 -0.20343263 0.17899133
0.04111137 0.19131827 -0.031006651 -0.19897312 0.15170135 0.09327869 0.2000863 -0.12823913
0.22276273 -0.0134653 0.17899217 0.055253282 0.06886726 -0.18349499 -0.015654575 0.11534885
0.16754995 0.15517044 -0.10642316 0.064533904 -0.056536272 -0.0790073 -0.14024836 0.118186906
0.004167691 0.1369289 -0.11236937 0.08882676 0.027217098 0.014410669 -0.13352862 0.097463444
-0.121123165 0.08058895 0.15299134 -0.12503098 0.15083188 0.0069013387 -0.010355011 -0.21803442
0.04042283 -0.13354835 0.026038617 -0.0061978996 0.033217877 0.1645471 0.13876419 0.13595825
0.20311421 -0.12706901 0.022723038 -0.17681327 0.14684157 -0.19355841 0.15747838 -0.107742846
-0.021657739 0.17588323 -0.17901777 0.19231991 0.19495206 -0.19750059 0.042955577 0.0010299362
0.116147146 -0.17917326 0.048789844 0.17244376 -0.1767653 0.18225637 -0.08009337 0.099878594
0.12889615 -0.086082086 -0.082964644 0.17339891 -0.20758373 -0.14938718 0.02583346 -0.15789984
0.09195703 -0.009416797 -0.100945316 -0.09639726 -0.015583441 -0.11999313 0.13875596 -0.22105491
-0.12857306 0.07378644 -0.07617291 -0.022973642 -0.03352895 -0.19530043 -0.11100617 0.19417132
0.2061914 -0.14850926 -0.024405196 0.07190741 0.0023150928 -0.19436438 -0.21201003 0.07425077
-0.10859952 0.1560629 -0.15682 -0.038726762 -0.17732286 0.07542549 0.03189367 0.023662541
00000000: 407a 5b3b a2f0 a93d 2a0b abbd 2814 dbbd
00000010: 4b35 4f3e 767c c7bd f4a9 04be d108 4d3e
00000020: fdce 12be acfe 4f3e 07a9 143e a30b 323e
00000030: c426 723d be0c c33d c0ff aabd 5ff6 39be
00000040: f257 f23d a19c 3d3d b1fb 8a3c 4769 36be
00000050: 36b7 e6bd 9990 cebc 93f7 eebd bfcd 2c3e
00000060: d714 43bd 8055 feba 2090 e93c 5669 33be
00000070: 9b32 0e3e 327e ddbc 9b3f 253e c360 f83d
00000080: e802 c6bc 2ea0 05be 5cad 263e e37e 293d
00000090: c064 07be 5c0d 2e3e bc9e 80bd 28c0 0dbe
000000a0: 286d 37bd 92f1 cdbd 199e 5bbe 0f80 e93d
000000b0: 13d5 093d e721 313d b161 a5bd 5dd6 dc3d
000000c0: 7cda 01be 0756 c2bd e7a7 473e 526f 13bd
000000d0: c87c 523e 7f0b b1bd 4e34 df3d f7b3 c8bd
000000e0: 50a4 debd a571 403e 9325 2e3e 6df3 2cbe
000000f0: c9a6 493d 34fb 90bc 0aed ca3c e970 c3bd
00000100: 0887 393d 69ca 2abe 5f20 f73d 4647 4d3c
00000110: 2012 433c 91e8 03be 82ee c0bd d6d2 7e3d
00000120: 7493 33be 2606 6cbd c19d cbbd f8b1 353e
00000130: 0d2d 3dbe 839b 223c 1179 52be acf7 0fbd
00000140: b940 86bd 3b97 993d 6d50 113e 00fd b2ba
00000150: 9868 b63c 00e4 1fbe a194 3b3e 303e 3bbe
00000160: 6dc7 edbd afbf f0bd 314a b2bd b7a0 b8bd
00000170: d1fa c4bc 807a 80bd 4f6e 13be 9a6f 183e
00000180: acc9 2fbe a487 a23d f5e5 24bb 1797 40be
00000190: b1a6 3e3e e732 acbd fc0a 56be fec3 3a3e
000001a0: f45a 9fbd e450 203d 61a5 093e 992b 263e
000001b0: a59d e9bd 16e2 df3d 2e82 9b3d 4033 a5bd
000001c0: 261d 16be 3e1f ebbd c0b3 24be 951e 443e
000001d0: ef96 063e a744 48be 4e53 543e 91b9 4dbe
000001e0: 8a29 5bbe d50b 17be 2d97 45be bfde 89bd
000001f0: 6e09 8bbd 031c 5fbc 9cf0 76bd 2898 4ebe
00000200: 5377 1b3e 2dae 383e 0880 5ebe abce cb3d
00000210: 5bac 98bc 7706 4e3e 6f84 a7bb 01d3 443e
00000220: 5d96 343e 3e9b a3b9 9b69 9e3d 5068 23be
00000230: 04a7 29bd 908d 15bd a550 50be 8149 373e
00000240: 6564 283d f0e8 433e a901 febc 9cbf 4bbe
00000250: 9957 1b3e e608 bf3d 6ce3 4c3e 1e51 03be
00000260: ea1b 643e 909d 5cbc b949 373e 4451 623d
00000270: 470a 8d3d 1ce6 3bbe 063e 80bc 053c ec3d
00000280: 3792 2b3e 00e5 1e3e 63f4 d9bd 5a2a 843d
00000290: 9492 67bd 94ce a1bd 449d 0fbe fa0b f23d
000002a0: 2091 883b 1737 0c3e ea21 e6bd ceea b53d
000002b0: 64f6 de3c ba1a 6c3c babb 08be ea9a c73d
000002c0: 6c0f f8bd d20b a53d c3a9 1c3e 1f08 00be
000002d0: ac73 1a3e a024 e23b 10a8 29bc 6a44 5fbe
000002e0: 6992 253d e6c0 08be f04e d53c c017 cbbb
000002f0: 780f 083d 097f 283e 3318 0e3e a438 0b3e
00000300: 2cfd 4f3e 611e 02be aa25 ba3c 8a0e 35be
00000310: a35d 163e 2d34 46be 0342 213e 48a8 dcbd
00000320: 926b b1bc bc1a 343e 6f50 37be 83ef 443e
00000330: 83a1 473e 983d 4abe 30f2 2f3d edfe 863a
00000340: 8ede ed3d 3279 37be dcd7 473d 1995 303e
00000350: f601 35be 6aa1 3a3e fe07 a4bd 268d cc3d
00000360: 5afd 033e ce4b b0bd 5ee9 a9bd 7c8f 313e
00000370: d490 54be f4f8 18be b1a0 d33c 7fb0 21be
00000380: f853 bc3d e948 1abc 6bbc cebd ed6b c5bd
00000390: b051 7fbc f5be f5bd 0b16 0e3e 385c 62be
000003a0: a8a8 03be 581d 973d 8b00 9cbd 3833 bcbc
000003b0: a755 09bd d6fc 47be 3457 e3bd d9d4 463e
000003c0: d723 533e d012 18be 68ed c7bc 3144 933d
000003d0: d0b8 173b 7507 47be 2819 59be ca10 983d
000003e0: 6d69 debd f4ce 1f3e 6c95 20be f49f 1ebd
000003f0: 2094 35be ae78 9a3d f0a2 023d f2d7 c13c

arith.constant1 f4 [128, 256]
0.018721879 0.07068631 -0.09418464 -0.1200594 -0.053640097 -0.00837943 -0.08255869 -0.030415386
-0.02373907 0.08954209 -0.046695977 0.026403904 0.0025207102 -0.11159593 -0.098893136 0.031811357
0.03695059 0.078899086 0.019626498 0.09866282 0.07774669 -0.060336173 -0.06313497 0.10979602
0.009681821 -0.008395493 0.12176007 -0.10031471 0.02176866 0.0054908395 -0.022709042 0.035016358
0.0025524795 -0.11672807 -0.0973441 0.016525567 -0.0565404 0.022810042 -0.03254026 0.06766102
-0.07827026 0.04284823 0.004091054 -0.096244365 0.06277162 -0.08130881 -0.018620878 -0.03750378
-0.0097898245 0.037320286 -0.055624902 -0.05370587 -0.04906684 0.0615772 -0.112634 0.118106484
-0.056107312 0.045127273 -0.010530919 -0.016403705 -0.09579259 -0.06984666 0.120835155 -0.112933636
0.051027417 0.005858779 -0.068600625 0.09200418 -0.06802359 -0.011175454 -0.082918465 -0.026412338
-0.07573295 -0.10612324 0.016345978 -0.12293795 -0.013630569 0.044095784 -0.044494927 0.064174384
-0.084860355 -0.0983327 -0.016833693 0.05109647 0.043691486 0.008728623 0.06188205 0.07474977
0.028930217 -0.093120545 -0.0007543266 -0.118334204 -0.101790965 -0.09122485 -0.074980944 0.0025843084
-0.09272155 0.11375874 -0.020942062 -0.072069526 0.03586352 -0.081926614 -0.03981486 -0.018422157
0.00048789382 0.06864229 0.066773295 -0.045342952 0.050164074 -0.0012242496 0.0047780573 -0.08119604
-0.009591311 -0.12433007 0.086850524 0.016090006 -0.0472745 -0.10408652 0.08186236 -0.01122579
0.12385318 0.03481376 0.12085566 0.10727069 -0.042153567 0.030657679 -0.10434583 0.10854757
0.09461826 0.0044519305 0.059737414 -0.08786675 -0.119597584 -0.010075152 0.061591774 -0.017658979
-0.0074697137 0.0070182085 0.031774044 0.085068226 -0.0916909 -0.098083556 0.1091274 -0.076132685
0.11404854 0.10795727 -0.054470748 0.006127417 0.08507973 0.04658258 -0.114616364 -0.026958942
0.009387463 0.09776339 0.0170511 -0.08612296 0.010962665 0.097164035 -0.09546074 0.02125594
0.11254653 0.049352944 0.081538975 -0.11713621 0.06576043 -0.014245361 0.115276724 0.052318633
0.045137256 0.053852588 0.004588157 0.07577506 0.014882356 0.05227971 0.10885069 0.09988311
-0.115159035 -0.025605291 -0.09756121 -0.022615701 -0.06316158 -0.11928707 0.05237034 -0.07743856
0.066705614 0.08994615 0.09968847 -0.010389477 -0.007085532 0.045926243 -0.011454791 -0.053718507
-0.10906857 0.0834682 0.01714027 0.053025603 -0.11093047 -0.085338324 -0.11569941 -0.012871146
-0.036762685 0.101769924 0.055232048 0.067209184 0.09192395 0.051143646 -0.090480834 0.056682557
-0.034957647 0.08411896 0.0161407 -0.047730774 -0.10034871 -0.0781658 0.018923521 -0.0061833262
0.092833966 0.07480499 0.12004867 0.00455001 0.020492852 -0.075372964 -0.044596583 -0.07740307
-0.03120339 -0.049544662 -0.042156845 -0.01152131 0.016030848 -0.11585522 -0.077376455 -0.013650924
-0.114108294 -0.09392774 0.09377095 -0.094426244 0.124194056 0.05046001 0.108963996 -0.023536295
-0.065136194 -0.028316021 -0.067653835 -0.11617917 -0.035487533 0.004295796 0.049643278 -0.118727356
0.018931061 0.023245752 0.048647493 -0.09425321 0.069156915 0.12202793 -0.10291758 0.05930683
00000000: a05e 993c fcc3 903d e0e3 c0bd b4e1 f5bd
00000010: b8b5 5bbd e049 09bc 8814 a9bd b029 f9bc
00000020: 7078 c2bc d861 b73d 4844 3fbd 004d d83c
00000030: 8032 253b 688c e4bd 7c88 cabd a04c 023d
00000040: 8059 173d d895 a13d c0c7 a03c bc0f ca3d
00000050: a839 9f3d 1023 77bd e84c 81bd bcdc e03d
00000060: 80a0 1e3c 408d 09bc 585d f93d cc71 cdbd
00000070: 3054 b23c 80ec b33b 5008 babc 506d 0f3d
00000080: 8047 273b 200f efbd 585c c7bd a060 873c
00000090: e896 67bd 20dc ba3c f048 05bd dc91 8a3d
000000a0: 284c a0bd a081 2f3d 400e 863b c41b c5bd
000000b0: 688e 803d 3c85 a6bd d08a 98bc 909d 19bd
000000c0: 8065 20bc 28dd 183d f0d6 63bd b0fa 5bbd
000000d0: 50fa 48bd 6038 7c3d a8ac e6bd d0e1 f13d
000000e0: c8d0 65bd 60d7 383d e089 2cbc 1061 86bc
000000f0: e82e c4bd c40b 8fbd 6c78 f73d c049 e7bd
00000100: 2002 513d 00fb bf3b 7c7e 8cbd b06c bc3d
00000110: f44f 8bbd 4019 37bc 28d1 a9bd b05e d8bc
00000120: e019 9bbd 2457 d9bd 00e8 853c e4c6 fbbd
00000130: c052 5fbc c89d 343d 5040 36bd dc6d 833d
00000140: 44cb adbd a862 c9bd d0e6 89bc 884a 513d
00000150: d8f5 323d 8002 0f3c 0878 7d3d 6816 993d
00000160: 10ff ec3c fcb5 bebd 00be 45ba 3459 f2bd
00000170: c877 d0bd 18d4 babd 9c8f 99bd 805d 293b
00000180: cce4 bdbd 58fa e83d b08e abbc 3099 93bd
00000190: a0e5 123d 24c9 a7bd e814 23bd 10ea 96bc
000001a0: 00cc ff39 5494 8c3d 70c0 883d 88b9 39bd
000001b0: d878 4d3d 0077 a0ba 4091 9c3b 1c4a a6bd
000001c0: e024 1dbc c4a0 febd b0de b13d 30cf 833c
000001d0: e8a2 41bd 502b d5bd 74a7 a73d 60ec 37bc
000001e0: bca6 fd3d e098 0e3d 2c83 f73d bcb0 db3d
000001f0: 38a9 2cbd d025 fb3c 44b3 d5bd 304e de3d
00000200: 38c7 c13d 80e1 913b 38af 743d 7cf3 b3bd
00000210: 94ef f4bd 4012 25bc a847 7c3d 90a9 90bc
00000220: 80c4 f4bb 00f9 e53b 8025 023d 4038 ae3d
00000230: 70c8 bbbd 08e0 c8bd 307e df3d 74eb 9bbd
00000240: 4892 e93d b418 dd3d b81c 5fbd 80c8 c83b
00000250: 483e ae3d 60cd 3e3d fcbb eabd 00d9 dcbc
00000260: e0cd 193c 2c38 c83d c0ae 8b3c 3c61 b0bd
00000270: c09c 333c f0fd c63d ec80 c3bd f020 ae3c
00000280: cc7e e63d 5026 4a3d e8fd a63d 1ce5 efbd
00000290: 68ad 863d 6065 69bc 3416 ec3d 104c 563d
000002a0: d8e1 383d 8894 5c3d 4058 963b f42f 9b3d
000002b0: 20d5 733c 4023 563d 1ced de3d 848f cc3d
000002c0: 80d8 ebbd 30c2 d1bc 2cce c7bd 9044 b9bc
000002d0: dc5a 81bd c84c f4bd 4882 563d 1c98 9ebd
000002e0: f49c 883d b035 b83d 7829 cc3d a038 2abc
000002f0: c02d e8bb 281d 3c3d e0ac 3bbc f007 5cbd
00000300: 585f dfbd 60f1 aa3d c069 8c3c 6031 593d
00000310: 842f e3bd dcc5 aebd d0f3 ecbd 80e1 52bc
00000320: 7894 16bd c06c d03d 003b 623d f8a4 893d
00000330: a042 bc3d 007c 513d 044e b9bd f82b 683d
00000340: c02f 0fbd 9046 ac3d 8039 843c 5881 43bd
00000350: a083 cdbd 6415 a0bd 8005 9b3c 809d cabb
00000360: bc1f be3d 5c33 993d 14dc f53d 4018 953b
00000370: a0e0 a73c 245d 9abd e8aa 36bd 8085 9ebd
00000380: 409e ffbc 58ef 4abd a8ac 2cbd e0c3 3cbc
00000390: 2053 833c 8045 edbd 8c77 9ebd 20a8 5fbc
000003a0: 9cb1 e9bd 305d c0bd fc0a c03d 8c62 c1bd
000003b0: 7459 fe3d 28af 4e3d 8428 df3d 30cf c0bc
000003c0: 2066 85bd 00f7 e7bc 188e 8abd 58ef edbd
000003d0: 605b 11bd c0c3 8c3b c056 4b3d 5427 f3bd
000003e0: 5015 9b3c e06d be3c 9842 473d d407 c1bd
000003f0: 24a2 8d3d c8e9 f93d 74c6 d2bd b8eb 723d

sequential/dense_1/BiasAdd/ReadVariableOp f4 [128]
0.0 0.0 0.008705699 -0.005864948 0.007818928 -0.00429686 0.0006069761 0.0
0.0 0.010778734 0.010234397 -0.0051394654 0.0 0.0 0.0 -0.0069709313
0.0033747498 -0.0012582104 -0.007181421 -0.0007435381 0.0 0.004673409 -0.0075071002 0.0
0.0068205376 0.0 0.0 0.0 0.011421072 -0.005858446 -0.0021763945 0.0058174855
0.0 -0.0052767135 0.002419535 0.0055228355 0.0 0.0013989778 0.0 0.0
0.0 0.0 0.0057684975 -0.004985321 -0.001102081 0.0017526419 0.0042268466 0.0049591903
0.0 0.0 -0.008228309 -0.0059065875 0.004973919 0.0 0.0 0.008920965
0.0004093722 0.0 0.0 0.0 0.0023872945 0.0034053484 -0.011036326 0.0047465493
0.00357214 0.0 -0.00964454 -0.0059255073 0.0 -0.002967355 -0.0031988004 -0.0064162477
-0.0008567189 -0.0038327686 -0.0059379567 -0.0026794178 0.0016172301 0.0035146682 0.0028042444 -0.0060218093
-0.0013710529 0.011455323 0.004511366 0.0 0.0043165134 -0.0031600436 0.0 -0.00497511
0.0052971076 0.0 -0.00094727194 0.005546728 0.0023101438 -0.0052120825 -0.005933153 0.002613547
0.0006619203 0.0033115388 0.0035711895 -0.0059387195 0.0 0.0063754045 6.0395905e-05 -0.0049737217
-0.007428002 0.0009147116 0.0024765949 0.0 -0.0035030877 0.0 0.0 0.0
0.006158532 0.0 -0.00593809 0.0062470348 0.005768671 -0.0028173628 0.007213721 0.0
-0.0076793064 -0.008742129 0.003587817 -0.0024363233 0.0 0.00805585 0.0 -0.005184133
00000000: 0000 0000 0000 0000 59a2 0e3c c02e c0bb
00000010: f61a 003c adcc 8cbb 7a1d 1f3a 0000 0000
00000020: 0000 0000 4a99 303c 2cae 273c f668 a8bb
00000030: 0000 0000 0000 0000 0000 0000 696c e4bb
00000040: e82a 5d3b 89ea a4ba 2052 ebbb ffe9 42ba
00000050: 0000 0000 6523 993b 1ffe f5bb 0000 0000
00000060: d17e df3b 0000 0000 0000 0000 0000 0000
00000070: 731f 3b3c 35f8 bfbb d7a1 0ebb 9ba0 be3b
00000080: 0000 0000 48e8 acbb 1091 1e3b e7f8 b43b
00000090: 0000 0000 e85d b73a 0000 0000 0000 0000
000000a0: 0000 0000 0000 0000 aa05 bd3b e75b a3bb
000000b0: b473 90ba e7b8 e53a 5c81 8a3b b480 a23b
000000c0: 0000 0000 0000 0000 08d0 06bc 0c8c c1bb
000000d0: 42fc a23b 0000 0000 0000 0000 3d29 123c
000000e0: 02a1 d639 0000 0000 0000 0000 0000 0000
000000f0: 2874 1c3b 442c 5f3b b5d1 34bc f188 9b3b
00000100: 901a 6a3b 0000 0000 2204 1ebc c22a c2bb
00000110: 0000 0000 f577 42bb f7a2 51bb 633f d2bb
00000120: 6f95 60ba 302f 7bbb 3193 c2bb 2c99 2fbb
00000130: 3df9 d33a 5956 663b 6ac7 373b 9952 c5bb
00000140: e7b4 b3ba 1baf 3b3c 15d4 933b 0000 0000
00000150: 8a71 8d3b bc18 4fbb 0000 0000 3f06 a3bb
00000160: 5c93 ad3b 0000 0000 5852 78ba 54c1 b53b
00000170: c865 173b 1eca aabb e56a c2bb 0b48 2b3b
00000180: b884 2d3a 6706 593b 9e0a 6a3b 9799 c2bb
00000190: 0000 0000 c5e8 d03b 9c51 7d38 9afa a2bb
000001a0: 9966 f3bb 42c9 6f3a 5e4e 223b 0000 0000
000001b0: 0f94 65bb 0000 0000 0000 0000 0000 0000
000001c0: 83cd c93b 0000 0000 4f94 c2bb edb3 cc3b
000001d0: 1f07 bd3b 81a3 38bb 1461 ec3b 0000 0000
000001e0: b1a2 fbbb 263b 0fbc 9521 6b3b b9aa 1fbb
000001f0: 0000 0000 affc 033c 0000 0000 a9df a9bb

sequential/dense_2/BiasAdd/ReadVariableOp f4 [8]
0.005251604 -0.0013785078 0.012318459 -0.0028982598 -0.0050170603 -0.000961674 -0.008403211 0.0030734153
00000000: a615 ac3b 0caf b4ba 5dd3 493c bbf0 3dbb
00000010: 2766 a4bb da18 7cba 9fad 09bc 5a6b 493b

sequential/dense/BiasAdd/ReadVariableOp f4 [256]
0.006883251 0.0 0.0 0.00045887876 -0.00021060088 0.0 0.009806507 0.0
-0.005781436 0.0 0.0 -0.011032973 0.0029999162 -0.007663353 0.0 0.004683585
-0.0063376483 0.0 0.0 0.0070935083 -0.0027462246 -0.00024788184 0.01790589 0.0
-0.009301344 -0.003344067 0.0 0.0 -0.00806637 0.0 -0.004448386 0.0
0.0 0.005910412 0.0022163256 0.0 0.017969012 -0.0032389248 0.0 0.0
0.00851055 0.0035013496 -0.00011963211 0.0 0.0 -0.00629701 0.00083374244 0.0
0.0 -0.00834117 -0.00831415 0.0 0.0026456157 0.009386494 0.0075084916 0.0
0.006891007 0.0 0.0 0.0032930423 0.006526432 0.0 0.0 -0.00830176
0.0 0.0 -0.01127531 0.0 0.0 0.0 0.0 -0.005293571
-0.0032881373 0.0016129682 0.0 0.0025045108 -0.003992835 0.0023326182 0.0028343308 -0.0006072645
0.0 0.0 0.0 -6.825451e-05 0.0 0.016192997 -0.008293821 0.0
0.004059088 -0.0016225128 0.0 0.00077144953 0.00010153134 0.0 -0.0039445157 0.0036320908
-0.0012062019 0.0 0.0 0.0 0.0051493915 0.0 0.0 -0.0018587143
-0.011237712 0.0 -0.01134314 0.0 0.0 -0.0011641873 0.0 0.0
-0.0011004047 0.0024948707 -0.0039001736 0.0 0.0026333178 0.0 0.0 0.0
0.0 0.0 0.0 -0.0040045544 -0.007751765 0.0 0.0017813949 0.0
0.0 0.0 -0.006896864 0.0024394763 -0.0025914712 0.0 0.0 0.0
-0.00021117098 0.0 -0.006215922 -0.0028796836 0.0008265268 -0.0054721725 0.0 -0.005325776
0.0 0.00047667947 -0.0117326565 -0.012144712 0.013265807 0.003268588 0.0 0.001414656
0.0 -0.0022117172 0.0 -0.0035350947 0.0 0.0 0.0 -0.0104315225
0.0021316877 0.002190132 -0.011979465 0.0 0.0 0.0 0.0 0.009882632
0.0025337024 0.0 0.0042590764 0.0023576075 0.0027943938 -0.0006238698 0.0 0.0
0.010766941 0.0 -0.0033506039 0.0 0.0020402267 0.011651289 0.0 0.0
0.0016051881 0.0 0.0 0.0 -0.0075737727 0.002221448 -0.0075580315 0.0
0.012801703 0.0 -0.0041968 0.0060834056 -0.0025243196 0.0016387365 -0.005057849 0.0
-0.008268445 0.0 0.0077762036 -0.0036549545 -0.011242711 0.00093945797 0.0037066163 -0.00037145417
0.007460875 0.0 0.0 0.0 0.0 0.0 -0.007231472 0.0
0.005578673 0.0 -0.008242041 0.0053749485 0.0 0.0 -0.007128888 0.0
0.0 -0.0071246154 -0.0026059847 0.0 0.0 -0.012974071 -0.006428353 0.0
-0.00090037996 0.0 -0.0059343837 0.0059383847 -0.006721743 -0.0044164658 0.0071828435 -0.00041051823
0.004633534 0.0 0.006619043 0.002569976 0.017781425 -0.0009274012 -0.00072714104 0.001803934
-0.007864677 -0.013274036 -0.0054539763 -0.0011115152 0.0029974142 -0.007851279 0.0017189035 0.004639675
00000000: e58c e13b 0000 0000 0000 0000 aa95 f039
00000010: bed4 5cb9 0000 0000 79ab 203c 0000 0000
00000020: 3372 bdbb 0000 0000 0000 0000 a5c3 34bc
00000030: 3e9a 443b dd1c fbbb 0000 0000 c278 993b
00000040: 0cac cfbb 0000 0000 0000 0000 a970 e83b
00000050: 01fa 33bb 23f6 81b9 5faf 923c 0000 0000
00000060: aa64 18bc 2228 5bbb 0000 0000 0000 0000
00000070: cf28 04bc 0000 0000 c4c3 91bb 0000 0000
00000080: 0000 0000 21ac c13b c63f 113b 0000 0000
00000090: c033 933c 2444 54bb 0000 0000 0000 0000
000000a0: d56f 0b3c e676 653b 00e3 fab8 0000 0000
000000b0: 0000 0000 2657 cebb 828f 5a3a 0000 0000
000000c0: 0000 0000 67a9 08bc 1338 08bc 0000 0000
000000d0: 1162 2d3b cfc9 193c cb09 f63b 0000 0000
000000e0: f5cd e13b 0000 0000 0000 0000 15d0 573b
000000f0: aedb d53b 0000 0000 0000 0000 1b04 08bc
00000100: 0000 0000 0000 0000 14bc 38bc 0000 0000
00000110: 0000 0000 0000 0000 0000 0000 b175 adbb
00000120: ca7d 57bb 3b6a d33a 0000 0000 b822 243b
00000130: 54d6 82bb d7de 183b 2ec0 393b d530 1fba
00000140: 0000 0000 0000 0000 0000 0000 dc23 8fb8
00000150: 0000 0000 2da7 843c cee2 07bc 0000 0000
00000160: 1902 853b 7faa d4ba 0000 0000 1a3b 4a3a
00000170: 39ed d438 0000 0000 ff40 81bb 5f08 6e3b
00000180: 6b19 9eba 0000 0000 0000 0000 0000 0000
00000190: 3abc a83b 0000 0000 0000 0000 1aa0 f3ba
000001a0: 611e 38bc 0000 0000 94d8 39bc 0000 0000
000001b0: 0000 0000 a597 98ba 0000 0000 0000 0000
000001c0: 743b 90ba fc80 233b 0e9a 7fbb 0000 0000
000001d0: be93 2c3b 0000 0000 0000 0000 0000 0000
000001e0: 0000 0000 0000 0000 0000 0000 a338 83bb
000001f0: 8502 febb 0000 0000 b27d e93a 0000 0000
00000200: 0000 0000 0000 0000 17ff e1bb 9fdf 1f3b
00000210: acd5 29bb 0000 0000 0000 0000 0000 0000
00000220: c76d 5db9 0000 0000 efae cbbb 13b9 3cbb
00000230: 46ab 583a e94f b3bb 0000 0000 d983 aebb
00000240: 0000 0000 d6ea f939 543a 40bc 9dfa 46bc
00000250: d458 593c cf35 563b 0000 0000 fb6b b93a
00000260: 0000 0000 75f2 10bb 0000 0000 0cad 67bb
00000270: 0000 0000 0000 0000 0000 0000 fae8 2abc
00000280: c9b3 0b3b 5188 0f3b 8545 44bc 0000 0000
00000290: 0000 0000 0000 0000 0000 0000 c3ea 213c
000002a0: 790c 263b 0000 0000 b98f 8b3b 1782 1a3b
000002b0: 2622 373b 328b 23ba 0000 0000 0000 0000
000002c0: d367 303c 0000 0000 ce95 5bbb 0000 0000
000002d0: 53b5 053b 0ce5 3e3c 0000 0000 0000 0000
000002e0: 2d65 d23a 0000 0000 0000 0000 0000 0000
000002f0: 692d f8bb b795 113b 5da9 f7bb 0000 0000
00000300: 3cbe 513c 0000 0000 4f85 89bb 4e57 c73b
00000310: 0e6f 25bb dfca d63a 50bc a5bb 0000 0000
00000320: 5f78 07bc 0000 0000 86cf fe3b f687 6fbb
00000330: 5933 38bc f545 763a b4ea 723b bcbf c2b9
00000340: 5b7a f43b 0000 0000 0000 0000 0000 0000
00000350: 0000 0000 0000 0000 fcf5 ecbb 0000 0000
00000360: 4dcd b63b 0000 0000 a009 07bc 5620 b03b
00000370: 0000 0000 0000 0000 7299 e9bb 0000 0000
00000380: 0000 0000 9b75 e9bb 2bc9 2abb 0000 0000
00000390: 0000 0000 3391 54bc efa4 d2bb 0000 0000
000003a0: 7a07 6cba 0000 0000 3875 c2bb c896 c23b
000003b0: 1142 dcbb 00b8 90bb 0f5e eb3b d33a d7b9
000003c0: e6d4 973b 0000 0000 8fe4 d83b 0b6d 283b
000003d0: 5aaa 913c d71c 73ba 9c9d 3eba fb71 ec3a
000003e0: d9da 00bc 587b 59bc 45b7 b2bb 43b0 91ba
000003f0: 4470 443b a7a2 00bc d54c e13a 6a08 983b

sequential/dense/MatMul f4 [256, 63]
-0.118876755 0.10873004 -0.110351644 -0.04086077 -0.108211786 0.05509368 0.02783951 0.13304907
-0.080904104 0.11086444 0.078433774 -0.10295292 0.11932458 0.039158598 0.025925484 -0.12390439
0.055139963 -0.017908936 0.07003825 0.077674896 -0.103454426 -0.091046266 0.0310675 -0.025278924
0.04204346 0.12001024 0.012129643 0.055321448 -0.088629715 -0.0676642 -0.0966441 0.106301665
0.10753394 0.08921054 0.10188581 0.0554328 -0.105642244 0.12305332 -0.02417267 0.02527532
0.13495609 0.06266626 0.08238783 0.013446279 -0.0025298148 0.08570242 -0.11843877 -0.1023944
0.13623954 0.0045046257 0.0036943913 0.12884921 0.10114297 -0.044764854 0.056091208 -0.030127978
-0.11600109 0.122733735 -0.06486759 -0.119114 -0.09785098 0.11905622 0.04564071 -0.022168912
-0.03639902 0.023010522 -0.1085793 0.06543349 0.05154647 0.072598815 -0.13295777 0.12183833
-0.08460912 -0.08638005 0.10022223 0.03488235 -0.113083474 0.023213148 0.011027932 0.13539812
0.049635902 0.07425006 0.11734146 0.050036773 -0.017659344 -0.041551918 0.110942185 -0.124940924
-0.082048 0.020967454 -0.13221526 -0.13609962 -0.11152587 -0.105075285 -0.081640705 -0.075725555
-0.06770269 -0.019921087 0.061365932 -0.103846826 0.050194412 0.006878048 0.12834796 0.13531634
-0.1068791 0.10982336 -0.11502779 0.026753426 0.08217646 -0.046963952 -0.11681483 0.11760807
-0.092746496 0.099047095 0.005896613 0.111509755 -0.0047237724 0.0424774 -0.043845646 0.05789262
0.054669917 0.01909776 0.116986334 -0.09733467 -0.0766782 -0.0450541 -0.11080259 -0.0760558
0.101795 -0.046992496 -0.106825024 -0.09007488 -0.1342569 -0.08805013 -0.09190884 -0.014415048
-0.087955564 0.015168443 -0.05510764 -0.07473867 0.112218514 0.114696324 -0.09541567 -0.037987128
0.037881866 0.031703234 0.11268772 -0.028144032 -0.027803749 -0.03377027 0.091152415 -0.12704693
-0.084373534 -0.09771665 0.10795957 -0.04672493 -0.00558573 0.028056145 0.019033805 0.09456548
-0.13557942 -0.11888471 -0.06857255 -0.092580006 -0.09380618 -0.08944276 0.057422355 -0.12013102
0.038310677 -0.05213049 -0.02484589 -0.026427492 0.0019182861 -0.07868658 0.111054465 0.05438848
0.09371331 -0.077182375 -0.09035716 0.017984822 -0.078279786 0.06566924 -0.008969739 0.10199618
-0.035989903 -0.065758206 -0.01703991 0.12926266 0.06637862 0.03301717 0.115713865 -0.10937013
0.13829124 -0.10698087 -0.052607197 -0.05350248 0.021877896 0.11788145 -0.0908095 0.0010650994
-0.0025050277 -0.08997667 0.10193586 -0.041179627 -0.05197439 -0.09187572 -0.058036968 0.032577205
0.13634607 0.040542286 0.051671643 0.00072486704 -0.003746631 -0.04155535 0.10201876 0.14287235
0.008784029 0.014675076 -0.019113738 0.1023077 -0.07405485 0.06443972 -0.00038251944 0.01354741
0.016070927 0.092315994 -0.03733193 0.03480635 0.10764572 -0.012802332 0.13154255 0.075746834
0.094259635 -0.008163721 0.007707278 -0.055249818 -0.025908824 0.03739859 0.10310903 0.049791083
-0.061235048 -0.008555975 -0.017262682 -0.09112135 -0.032555398 0.08238927 -0.13071772 -0.019358654
0.12511736 0.09517476 -0.039106157 0.045708336 -0.047827195 0.048505325 0.09893184 -0.013380188
00000000: a875 f3bd dbad de3d 0b00 e2bd 9f5d 27bd
00000010: 249e ddbd e9a9 613d af0f e43c 043e 083e
00000020: 0db1 a5bd e50c e33d e3a1 a03d fbd8 d2bd
00000030: 7260 f43d c464 203d ae61 d43c 96c1 fdbd
00000040: 71da 613d c3b5 92bc 3770 8f3d 0414 9f3d
00000050: eadf d3bd 7776 babd 4581 fe3c bf15 cfbc
00000060: c335 2c3d eec7 f53d 69bb 463c be98 623d
00000070: 7f83 b5bd 8793 8abd 58ed c5bd b0b4 d93d
00000080: c13a dc3d 04b4 b63d 82a9 d03d 810d 633d
00000090: f65a d8bd 6103 fc3d c305 c6bc 300e cf3c
000000a0: ee31 0a3e 2b57 803d f3ba a83d c84d 5c3c
000000b0: 40cb 25bb c084 af3d 0790 f2bd 28b4 d1bd
000000c0: 6182 0b3e 8a9b 933b 9a1d 723b 0cf1 033e
000000d0: 0c24 cf3d 5a5b 37bd e5bf 653d f3ce f6bc
000000e0: fb91 edbd d35b fb3d 4dd9 84bd 0af2 f3bd
000000f0: 1866 c8bd bfd3 f33d c1f1 3a3d 949b b5bc
00000100: 2417 15bd 9080 bc3c d35e debd fe01 863d
00000110: 6422 533d b0ae 943d 1526 08be 6086 f93d
00000120: 8c47 adbd 06e8 b0bd 5041 cd3d cce0 0e3d
00000130: 4f98 e7bd 8029 be3c 80ae 343c cea5 0a3e
00000140: 044f 4b3d 6a10 983d b850 f03d 5cf3 4c3d
00000150: 54aa 90bc 5832 2abd a835 e33d 07e1 ffbd
00000160: c808 a8bd f0c3 ab3c 7063 07be b35d 0bbe
00000170: ad67 e4bd b631 d7bd 3e33 a7bd 0016 9bbd
00000180: b5a7 8abd 8c31 a3bc d85a 7b3d a5ad d4bd
00000190: a898 4d3d 4061 e13b a66d 033e 5e90 0a3e
000001a0: 6ee3 dabd 12eb e03d b193 ebbd 002a db3c
000001b0: 224c a83d 465d 40bd 9d3c efbd 80dc f03d
000001c0: e0f1 bdbd 34d9 ca3d 6038 c13b 3a5f e43d
000001d0: e0c9 9abb c8fc 2d3d 7e97 33bd d020 6d3d
000001e0: 90ed 5f3d e872 9c3c 8896 ef3d 6657 c7bd
000001f0: 7609 9dbd a68a 38bd 78ec e2bd 25c3 9bbd
00000200: e679 d03d 347b 40bd 14c7 dabd 2e79 b8bd
00000210: a47a 09be a053 b4bd b43a bcbd 182d 6cbc
00000220: 0c22 b4bd 1085 783c 8cb8 61bd 9610 99bd
00000230: d2d2 e53d e8e5 ea3d 4a69 c3bd 6498 1bbd
00000240: 042a 1b3d 40db 013d d2c8 e63d 508e e6bc
00000250: b0c4 e3bc b252 0abd 1eae ba3d 9718 02be
00000260: 08cc acbd ab1f c8bd e819 dd3d a462 3fbd
00000270: 8008 b7bb 00d6 e53c c8ec 9b3c 8cab c13d
00000280: 55d5 0abe d479 f3bd c46f 8cbd 969a bdbd
00000290: 741d c0bd c42d b7bd b433 6b3d 4107 f6bd
000002a0: a8eb 1c3d c886 55bd 9c89 cbbc 787e d8bc
000002b0: 006f fb3a 6e26 a1bd 8670 e33d 74c6 5e3d
000002c0: c4ec bf3d cb11 9ebd 2d0d b9bd e854 933c
000002d0: 2751 a0bd 987d 863d d0f5 12bc 60e3 d03d
000002e0: 266a 13bd 3dac 86bd 4897 8bbc 6e5d 043e
000002f0: 84f1 873d 033d 073d 64fb ec3d 72fd dfbd
00000300: 389c 0d3e c918 dbbd a57a 57bd 6b25 5bbd
00000310: 4639 b33c d46b f13d 55fa b9bd ce9a 8b3a
00000320: 642b 24bb b045 b8bd c0c3 d03d f8ab 28bd
00000330: 19e3 54bd 5629 bcbd 2cb8 6dbd ad6f 053d
00000340: 4e9e 0b3e ab0f 263d a5a5 533d 0105 3e3a
00000350: 0a8a 75bb f135 2abd 36ef d03d 214d 123e
00000360: e3ea 0f3c bb6f 703c 6a94 9cbc b386 d13d
00000370: 12aa 97bd f9f8 833d e48c c8b9 f5f5 5d3c
00000380: 2da7 833c 2b10 bd3d 5ee9 18bd 1a91 0e3d
00000390: 5c75 dc3d dfc0 51bc 17b3 063e 2821 9b3d
000003a0: 320b c13d 21c1 05bc 558d fc3b a24d 62bd
000003b0: be3e d4bc 442f 193d d42a d33d bcf1 4b3d
000003c0: 9ad1 7abd 5c2e 0cbc 786a 8dbc d59d babd
000003d0: cf58 05bd b5bb a83d deda 05be 0a96 9ebc
000003e0: c41e 003e fcea c23d c72d 20bd aa38 3b3d
000003f0: 73e6 43bd 85ad 463d c79c ca3d 9338 5bbc
